model/follower-lite/checkpoint_p0/checkpoint_000001248_20447232.pth (torch, 54155 bytes, 27 tensors)

encoder.conv_head.0.weight f4 [8, 2, 3, 3]
000000 41 1d 09 bf da 3f 7f 3d d4 60 90 be 3a c3 e4 3d
       -0.5356026 0.062316753 -0.28198874 0.11170049
000010 10 e4 14 3f 17 9b ed 3f 6c 9d e8 3d ce d0 d6 3f
       0.58160496 1.8562955 0.11358151 1.6782472
000020 7e 4f 1f 3e 69 d2 c0 3d 4d e4 1f be e0 ca c6 bd
       0.15557668 0.094151326 -0.15614434 -0.09706664
000030 74 cb 82 bf 49 c1 24 bf 48 4d f1 bf 10 f1 4b 3e
       -1.0218339 -0.6435743 -1.8851709 0.19916177
000040 ee ce ab be 5a 88 28 3f 19 27 71 3d 65 f8 85 3e
       -0.33556312 0.65833056 0.058875177 0.26166072
000050 b9 3f a1 be c5 fa 52 bf de e9 3f bf d5 d5 0b 3f
       -0.3149393 -0.82413894 -0.7496623 0.54623157
000060 3d dc b0 bd 12 6e 58 bf db fe bf 3e 6b 8b 9d 3e
       -0.08635757 -0.84542954 0.37499127 0.3077043
000070 22 4c 82 3e 47 99 b5 3d c4 ca b1 3f df 81 c7 3f
       0.2544871 0.08867126 1.3890004 1.5586509
000080 c1 91 03 3d 53 13 91 3e 63 2b bf 3e e1 a6 23 bc
       0.032121424 0.28335056 0.3733779 -0.0099885175
000090 5f 61 47 3d 4a 3d 8f 3f da 06 a2 bd 97 f6 a0 be
       0.048676845 1.1190579 -0.07911463 -0.31438133
0000a0 04 fe ae 3f 18 51 93 3a 9d e1 f6 3e b2 38 bd 3e
       1.367127 0.0011239378 0.48219004 0.36957318
0000b0 52 2d 34 be 75 e1 97 3f 6f 7d 27 bf e6 b7 57 3e
       -0.17595413 1.1865679 -0.6542577 0.21066245
0000c0 6c f5 32 3f ee 07 13 c0 93 8d 27 be 40 64 e5 3d
       0.69905734 -2.297359 -0.163626 0.11200762
0000d0 cb d8 5f 3e 49 2f 0a 3c 7d dd 68 bd 0c da 98 3e
       0.21860044 0.008434125 -0.056851853 0.29853857
0000e0 a1 b7 ff 3e 74 6d 32 3f ec 5c 82 bf e5 c7 38 bd
       0.49944785 0.6969826 -1.0184608 -0.04511251
0000f0 b5 3e 65 3f 93 e1 ee 3e 2b e7 e4 3d b2 b7 31 bd
       0.8954881 0.46656474 0.11176904 -0.043388076
000100 90 92 0f bf a5 1c ac bf 62 40 22 c0 d4 0b 0b 3c
       -0.5608301 -1.3446242 -2.5351796 0.008486707
000110 28 4f 84 be 5b 5a 85 be 9a 6c 5e 3f 22 e7 61 3f
       -0.2584164 -0.26045498 0.8688446 0.88243306
000120 a1 23 b9 be 53 2e f7 3f ff a9 10 3f db ab 02 bf
       -0.36159995 1.9311012 0.56509393 -0.5104348
000130 45 c2 16 bf 75 c7 3c 3e 34 38 d5 bd dd d5 57 be
       -0.5889018 0.18435462 -0.104111105 -0.21077676
000140 ca 9e 37 be 0e f8 10 3d 88 98 7a c0 80 5b 8d 3e
       -0.17931667 0.035392813 -3.9155598 0.2760887
000150 28 53 4e 3e 02 13 35 bf db fe 15 3d bc b0 13 bf
       0.20148909 -0.7073213 0.036620002 -0.5769155
000160 1f ba 04 bf 8c 95 2c 3e df 4a e4 be 9c d0 39 3f
       -0.518465 0.16853923 -0.44588372 0.7258394
000170 cc ba b2 3e 80 a5 bf 3e ef d5 30 3e ec df cd be
       0.3490814 0.37430954 0.17269109 -0.402099
000180 0d 54 c9 be 8e b0 3d 3e 97 f8 fc 3e 29 a2 dd 3d
       -0.39321938 0.18524382 0.4940841 0.10821945
000190 bb 88 6d 3f 06 f7 85 3e 07 71 4b 3e e3 e4 be 3f
       0.9278676 0.26165026 0.19867335 1.4913601
0001a0 17 6a 91 3f 25 6d 11 bf 82 e9 c4 3e ec 02 3b 3f
       1.1360501 -0.56807166 0.38459402 0.73051333
0001b0 bd 93 54 3f 4e 6e bd 3e 5b 5b 37 bf bc 57 46 3e
       0.8303793 0.36998218 -0.7162377 0.19369406
0001c0 3c 1c 3d bf 3d d5 07 be 26 9c e0 bd e1 6f 5f 3f
       -0.7387121 -0.13264938 -0.10967283 0.8728009
0001d0 0a 16 0a bf 45 3b c4 bf 2c 8b 9c 3d 40 c1 85 be
       -0.5393988 -1.5330588 0.076437324 -0.26124
0001e0 76 f0 4d bf 03 6a ad be eb 58 9c 3e 8d bd 4d bf
       -0.8044504 -0.33869943 0.3053659 -0.80367357
0001f0 4a bb b2 bf 5a 4a c4 3e 5d 65 94 3e 30 57 22 3f
       -1.3963406 0.38337976 0.28983584 0.6341429
000200 de 7a cd bd 6e a0 9d 3f de ed 0f 3f 91 da 1a 3f
       -0.10033201 1.2314584 0.5622233 0.60489756
000210 c3 6c ee 3d 78 d0 9e 3f 0d 19 8a 3e 6b 8e 33 bf
       0.116418384 1.240737 0.26972237 -0.7013919
000220 7f 80 aa be 25 64 32 bf 06 6e 92 be 43 f0 c8 3e
       -0.3330116 -0.6968406 -0.28599566 0.39245805
000230 55 45 29 be 69 7e cb bd da d2 8c bf 88 ef 3b bf
       -0.16530354 -0.0993622 -1.1001847 -0.7341237

encoder.conv_head.0.bias f4 [8]
000000 7c 6e af 3b 12 72 dc bc bd 1d cd 3b 24 a5 46 bc
       0.005353747 -0.026909862 0.0062596486 -0.0121243335
000010 f8 0b a7 3c 87 a5 65 bc f4 77 16 3c 94 bc bf bb
       0.02039145 -0.014016516 0.0091838725 -0.0058513377

encoder.conv_head.1.res_block_core.1.weight f4 [8, 8, 3, 3]
000000 00 4d 50 be bb ff 9d be 13 65 19 3e 11 60 58 3e
       -0.20341873 -0.3085917 0.14979963 0.21130396
000010 f7 8c bf 3d ef 22 60 3e 65 c2 1e 3e 9a 13 3e 3d
       0.09353059 0.21888326 0.15503843 0.046405412
000020 6f f9 97 bd 9b 70 f0 3d a9 63 4c be 92 4b 48 be
       -0.074206226 0.11740228 -0.19959892 -0.19560078
000030 e6 b5 26 3e c0 0c 96 bd e8 12 d6 bd 35 93 86 3e
       0.16280326 -0.073266506 -0.10452825 0.26284185
000040 d1 77 e3 3d 63 3e 45 bd 90 49 00 3e a9 91 04 bf
       0.111068375 -0.0481552 0.12528062 -0.5178476
000050 98 ed 02 3e 4c ab 9e 3e 9b a1 84 be 5d 3b 5f bd
       0.12785947 0.30990064 -0.25904545 -0.054499973
000060 32 22 e0 bb d0 7e ff 3e 4a 3f 06 3f 79 8a cb 3e
       -0.006840014 0.49901438 0.5244032 0.39754084
000070 49 c8 d5 bc b6 60 53 be d0 83 bf be 5a 33 1e 3e
       -0.02609648 -0.20642361 -0.37405252 0.15449277
000080 54 a3 a3 3d ef c3 85 bd 05 9a 2a be 21 88 33 3e
       0.07990137 -0.06531512 -0.16660316 0.17532398
000090 74 c7 92 3e 9b 2b 99 3c b2 63 c0 3e 61 97 f2 3d
       0.28667796 0.01869755 0.3757606 0.118452795
0000a0 6e 9e 77 3e 0a f0 66 3e 56 2e e6 bc 1d 4e 36 3e
       0.2418153 0.22552505 -0.028098267 0.17803235
0000b0 a4 f3 5f 3a 5a bc 00 bf 9f 11 07 be c0 cc e5 be
       0.000854308 -0.502874 -0.13190316 -0.44882774
0000c0 da 39 2c be 67 47 66 be 81 68 4f be c6 e1 5d be
       -0.16818944 -0.22488175 -0.20254709 -0.21668157
0000d0 fc 28 7d be 11 42 f6 be d5 cf c6 3e f8 6b cf 3c
       -0.24722666 -0.4809728 0.38830438 0.025320038
0000e0 9a 56 8f 3d 48 30 82 3e 34 6c 7a 3e 7f 7a f2 3e
       0.0699894 0.2542746 0.24455339 0.47359082
0000f0 d8 99 ef bd 10 53 9e bd ac a3 66 bd 2b 97 bf be
       -0.11699265 -0.07730687 -0.056308433 -0.3742002
000100 0e c2 57 3e ea fd 97 3e 63 fc ba be 75 a1 0e 3f
       0.2107012 0.2968591 -0.3652068 0.55715114
000110 60 2b ad 3d 34 9c 62 3e 45 88 4c 3d 2e a2 47 3e
       0.08455539 0.221299 0.049934644 0.1949546
000120 7e b5 20 be a3 7c 0a 3e 00 4e 9c 3e 6c bf 42 3f
       -0.15694234 0.13524108 0.3052826 0.76073337
000130 4d 71 7f 3e b0 30 fb 3d 7a 4e 89 3e 8e a9 95 3e
       0.24945565 0.12265146 0.26817685 0.29230922
000140 96 6e de 3d 1e c5 05 3c e2 d4 01 be 81 bc 01 3d
       0.10860936 0.008164672 -0.12678865 0.031673912
000150 2d a7 a3 3d 37 20 31 bf 8b 4e fe be 15 b1 bd 3c
       0.079908706 -0.6918978 -0.496693 0.023155728
000160 fb d1 91 3e 61 2f 36 be 8e 75 6d 3d 14 59 d2 be
       0.28480515 -0.17791511 0.057973437 -0.41083586
000170 e1 57 1e 3e e6 8b 0f bf b8 02 e1 bd 7c cf 81 bc
       0.1546321 -0.56072843 -0.10986847 -0.015846007
000180 db 12 43 be b2 10 6c 3e a8 8b d8 be 33 a9 1f bf
       -0.19050162 0.23053244 -0.4229405 -0.6236755
000190 a0 9e ee bd 50 57 65 3e f8 fc 96 3e 24 46 98 be
       -0.11651349 0.22396588 0.29489875 -0.29741013
0001a0 d4 82 de bd 67 d2 9b be be 94 56 3e 7c 51 a6 3e
       -0.10864797 -0.30433962 0.20955178 0.32484043
0001b0 7b f2 ca bd 74 ab df bd 8c 77 bc 3e c7 85 2d be
       -0.09909531 -0.10921374 0.36809957 -0.16945563
0001c0 7e d8 e8 be 0f 2d dc be 08 f5 7c 3e 97 f2 92 3d
       -0.4547767 -0.43003127 0.24702847 0.071751766
0001d0 e5 67 17 3e 26 a9 a5 3e 54 c5 ae be 8c 3e 48 be
       0.14785726 0.32355613 -0.34134924 -0.1955511
0001e0 a5 b2 08 3e 43 a8 81 be 2d 56 94 be 9b 95 74 3e
       0.13349397 -0.25323686 -0.28971997 0.23885195
0001f0 b9 fd 1f bd 1e 3e 8d be f9 5a c2 be 1e 98 85 3e
       -0.03906033 -0.27586454 -0.37960032 0.2609262
000200 0a 08 65 3e 1e bc cf 3d 3a 9e 79 be 74 58 9f bb
       0.22366348 0.101433024 -0.24376765 -0.0048628394
000210 ff 77 27 3e 74 88 56 3d 8f 23 45 3e cb c4 57 be
       0.16354369 0.052376226 0.19251846 -0.21071164
000220 30 83 33 3d 8a 1c b9 3e d6 d4 a2 3e 56 fd 93 be
       0.043826282 0.36154586 0.31803006 -0.28904217
000230 90 d8 de 3d 4b 65 b5 ba b7 d8 bb 3e c7 e1 a0 bd
       0.1088115 -0.0013839392 0.36688778 -0.078555636
000240 cf 46 a5 3c 05 c8 c4 be 75 23 06 bc 1a b4 18 bf
       0.020175366 -0.38433853 -0.008187165 -0.59649813
000250 23 81 f5 3e 3d 71 a0 be 91 3a 03 3f 56 c2 2f be
       0.47950086 -0.31336394 0.5126124 -0.17163977
000260 26 0a 98 3d 7a 04 0d be 79 84 82 3e 5f 6c f6 bd
       0.07423811 -0.13771239 0.25491694 -0.12032389
000270 f9 80 72 3b f5 28 01 bd ac 25 4a 3e 0e 43 8f 3e
       0.0037003143 -0.0315332 0.19740933 0.27980846
000280 de 60 68 bd 30 47 86 bd df 40 88 3d d0 a8 8d bc
       -0.056733005 -0.06556547 0.06652998 -0.01729241
000290 7e 4e 1d 3e 7a 4d e6 be 66 67 48 bd bc e3 34 3e
       0.15361974 -0.44980985 -0.048926733 0.17664999
0002a0 43 38 f1 bc 33 5c 9d 3e ea 87 aa be be 4f 6b be
       -0.029445773 0.30734405 -0.3330682 -0.22979638
0002b0 f5 f5 f3 bc a5 db 94 bd 5a b4 b5 be f7 37 dd be
       -0.029780367 -0.07268456 -0.3548916 -0.4320676
0002c0 72 69 81 3e 34 ab ee 3e 57 6e a3 be 3b 22 28 3e
       0.2527576 0.46614993 -0.3192012 0.16419308
0002d0 7d 54 c0 3d 74 99 11 3e a8 25 a8 3e 98 0d 83 be
       0.09391115 0.14218694 0.3284123 -0.2559631
0002e0 f3 f3 61 3e 16 7c da be e1 d9 cf 3d 6b a3 2a 3d
       0.22065715 -0.42672795 0.10148979 0.041659754
0002f0 10 fb b5 be 52 57 ee be c9 03 22 bf f3 13 99 3d
       -0.35543108 -0.46550995 -0.63287026 0.07474508
000300 35 41 8b bd 76 b5 0f be 9a c0 e2 bd f2 b0 c3 be
       -0.06799547 -0.14034066 -0.11071892 -0.38220936
000310 ab f6 de be 0e 41 8d be a3 d9 91 be 18 b1 15 3e
       -0.43547568 -0.27588695 -0.28486356 0.14618337
000320 49 bc 2e be 50 51 39 bf f8 09 80 3e 66 2e a5 bd
       -0.17064013 -0.723897 0.25007606 -0.080654904
000330 64 75 1d bf 08 00 9b 3e 1b 21 86 3c e5 50 1b bf
       -0.6150725 0.3027346 0.016373208 -0.6067031
000340 0e 39 dd be 28 4b 7c bd 41 8d 74 3d 86 d1 20 3f
       -0.43207592 -0.061595112 0.059705023 0.6281971
000350 46 05 30 3e 8c 6f 20 bd 6e c0 7d 3c f6 0d 47 3e
       0.17189512 -0.03916888 0.015487773 0.1943892
000360 f2 79 38 be 9a c8 26 bd 9b de 88 bd 3a 64 c4 3d
       -0.18015268 -0.040718652 -0.066830836 0.09589429
000370 f0 15 06 3e 29 47 de 3d d1 82 a4 3e fa 48 65 bf
       0.13094306 0.108534165 0.32131055 -0.8956448
000380 67 4a 83 3e 35 29 57 be 98 1f 98 3e 18 d9 33 3e
       0.25642702 -0.21011813 0.29711604 0.17563283
000390 22 8a c2 be 21 64 68 bf 8f 64 86 3d e5 3b 2f 3e
       -0.37996012 -0.90777785 0.06562149 0.17112692
0003a0 9d fa a5 be 58 b3 88 3d fa b2 72 bd 0d e8 41 3e
       -0.32417765 0.06674832 -0.059252717 0.18936177
0003b0 fe cb 20 3e 51 dc 69 3e e5 be 56 be 11 74 2d 3d
       0.15702817 0.2283795 -0.20971258 0.042347018
0003c0 f2 25 92 be 51 f0 10 3e 50 54 22 3e 38 ff d9 bd
       -0.28544575 0.14154173 0.15852475 -0.10644382
0003d0 ce a2 96 bd 2e e0 58 be b9 61 5d bf 90 53 34 bd
       -0.07355271 -0.21179268 -0.8647724 -0.044025004
0003e0 e9 21 82 bd ec c8 a4 3d 31 17 30 be 5e f2 09 3d
       -0.06354124 0.08046135 -0.17196347 0.033678405
0003f0 82 2e 5f bd e8 f8 a8 be 75 51 46 3e 01 45 ee be
       -0.054487713 -0.330024 0.19367011 -0.4653702

encoder.conv_head.1.res_block_core.1.bias f4 [8]
000000 4c c3 cb 39 a2 38 2f 3a 83 31 94 ba 15 af 1d 3b
       0.00038864685 0.0006684159 -0.001130626 0.0024060656
000010 cb 98 f7 ba 03 9b e9 39 ef ec 16 bb 1f 43 ef 39
       -0.001889014 0.00044556716 -0.0023029407 0.0004563564

encoder.conv_head.1.res_block_core.3.weight f4 [8, 8, 3, 3]
000000 07 11 5e 3e f9 7c 0b 3e 6d 74 2e 3e 6c a3 fa bc
       0.21686183 0.13621892 0.170366 -0.030595504
000010 df 7f 26 be a3 f4 78 bd 73 9a e7 bd f2 05 85 bd
       -0.16259716 -0.06078018 -0.11308756 -0.064952746
000020 0c b4 66 bd 7c da dd 3d 84 4f 37 3e 51 57 ef bb
       -0.05632405 0.10832688 0.17901427 -0.00730411
000030 bd 77 c5 3e 8b fc cc bc f5 a1 57 3e d4 de 7b bd
       0.38567916 -0.025022766 0.21057875 -0.061491802
000040 15 18 a3 bd 81 67 2e 3e a1 a5 5e be bf 36 c6 3c
       -0.07963578 0.17031671 -0.2174287 0.024196027
000050 5b ac 77 bc 3b af 81 bd 70 b1 ef 3d ab 72 ef be
       -0.015116776 -0.06332251 0.117037654 -0.46767172
000060 38 5a 19 bf 9b f0 48 bd 4a da b3 3e 82 c0 b0 3d
       -0.5990329 -0.049057584 0.3512748 0.08630468
000070 69 d1 bd be d7 15 1a 3d 27 62 bf be 9d 08 03 be
       -0.3707383 0.037618484 -0.37379572 -0.12796254
000080 1f fe 04 3e e3 d2 65 be 22 1d a7 3c c4 b0 75 3e
       0.12987565 -0.22443728 0.020399634 0.23993212
000090 ae b8 ae 3e fc 65 13 3e 4e ac 53 3e ff 5a 2b bd
       0.34125274 0.14394373 0.20671198 -0.041834828
0000a0 cf 07 9f be 8d e6 f6 3c 29 5d d5 be 00 e7 b2 3e
       -0.31060645 0.030139232 -0.41672638 0.34941864
0000b0 57 9b 1f bd 43 bc 28 be 24 d2 9c 3e 3e 6f 9e be
       -0.038966503 -0.16478066 0.30629075 -0.30944246
0000c0 97 38 e4 3e 44 d5 38 be a6 af 85 bd 3a b7 1a be
       0.44574425 -0.18050104 -0.06527643 -0.15108958
0000d0 c6 8e 2e 3e 75 07 92 be 08 bc b9 3e e6 85 bb bd
       0.17046651 -0.28521314 0.3627627 -0.091563985
0000e0 f6 46 19 3e 60 25 98 3e e4 78 30 be 19 6a 3b be
       0.14968476 0.29716015 -0.17233616 -0.18302192
0000f0 af cf 0c be f5 71 41 be 5a 5e f0 be 91 cc 7b be
       -0.137511 -0.18891127 -0.46946985 -0.24589755
000100 97 e9 1e bf d8 6d 84 be f5 26 03 bf ac f0 0f be
       -0.6207518 -0.25865054 -0.5123132 -0.14056653
000110 3a 73 71 be e0 7d d8 3d 94 7d 1c 3e ce 10 b8 3e
       -0.23579112 0.10570884 0.15282279 0.3595032
000120 88 60 2e be 43 ec 3c 3d fa b5 30 be 71 56 10 bf
       -0.17029011 0.046123754 -0.17256919 -0.563819
000130 74 7f 96 be 1b bf ac 3e af 3a f3 3d d2 4f ca bd
       -0.29394114 0.33739552 0.118764274 -0.09878506
000140 cb 0a be bd ed 4e 2b be b1 d6 a1 3c 4b 7f ae 3e
       -0.09279402 -0.16729327 0.019755693 0.34081492
000150 58 5a 15 be b5 d1 44 bf 22 1b d5 bd bb 74 d1 3e
       -0.14585245 -0.7688249 -0.10405566 0.4090937
000160 a1 a3 05 3e c4 df e3 3d 05 7c f8 3d a3 d4 a7 be
       0.130507 0.11126664 0.1213303 -0.32779416
000170 9c 0a b0 bc be 92 a1 be 82 ee 55 bf 88 77 a3 3c
       -0.021489434 -0.31557268 -0.8356706 0.019954458
000180 f3 c1 ae be b6 a3 d3 bc 89 34 21 3d b4 97 47 be
       -0.34132347 -0.0258349 0.039356742 -0.19491464
000190 56 01 4e be f0 db 95 bc 47 d3 06 be 63 b0 36 bf
       -0.20117697 -0.018293351 -0.13166533 -0.71362895
0001a0 02 9b 40 bd a9 8a fa 3d 26 d0 65 bd 23 02 17 be
       -0.047022827 0.122334786 -0.05610671 -0.14746909
0001b0 2f 4f b2 3e 43 6f 2f bf dc f2 85 be 0a b8 05 be
       0.34826037 -0.68529147 -0.2616185 -0.13058487
0001c0 16 00 cb be 2e 32 54 3e 35 59 3f be c6 22 e1 3d
       -0.39648503 0.20722267 -0.18686374 0.10992961
0001d0 70 0e e8 3d 11 60 af be 8d a2 b1 bd 23 54 00 3b
       0.11330879 -0.3425298 -0.08673582 0.00195814
0001e0 b0 1e 4a 3e b2 83 00 bd e5 a7 76 3d 2f 14 03 be
       0.19738269 -0.031375594 0.06021871 -0.12800668
0001f0 a8 25 76 3e 6f 71 84 3e 1c eb b3 3e 43 d7 b8 be
       0.24037802 0.25867793 0.35140312 -0.36101732
000200 39 68 0b be c7 ce d9 3c fb 8a 21 3d 78 97 a9 3d
       -0.13613977 0.026587857 0.039439183 0.082808435
000210 30 76 90 be 65 d1 da bd 11 49 a5 3d 11 8a bf 3c
       -0.2821517 -0.1068447 0.08070577 0.023381265
000220 d2 bc 0e be 4d ca 84 be ab 05 39 3d 18 4a ea bd
       -0.13939217 -0.25935593 0.04517142 -0.114399135
000230 32 22 82 be 59 17 96 be 1f 6d 5c be 48 22 a9 be
       -0.25416714 -0.29314688 -0.21526001 -0.33033967
000240 e1 35 4c 3e 19 aa 00 3d 17 3b 87 bc 95 b4 18 3e
       0.19942428 0.031412218 -0.016507668 0.14912637
000250 a9 f5 6c bd 10 36 42 3d eb 75 5d bd 52 d2 40 be
       -0.057851467 0.04741484 -0.054067533 -0.18830231
000260 f2 61 c6 3e 38 0c 3b be 6a a0 84 3d c2 38 f3 3c
       0.387466 -0.1826638 0.06475909 0.02969015
000270 df 35 8f be f9 b1 5d 3e d1 57 68 3e 34 86 40 be
       -0.27970788 0.21649922 0.2268975 -0.18801194
000280 7c 94 be 3b b8 6c 62 be 43 6f 91 be 22 18 68 3d
       0.0058160406 -0.22111785 -0.28405198 0.05666364
000290 8e 57 8f bd b9 72 81 be ff 2e 80 bd 5c ee c3 bd
       -0.069991216 -0.2528284 -0.06258964 -0.09566948
0002a0 57 68 62 3d 37 60 a5 3c 12 64 62 3c 1e d7 32 3d
       0.055275287 0.02018748 0.013817804 0.043662183
0002b0 af 23 e0 3e 93 48 ad bd 28 e8 98 be 9a 29 f6 3c
       0.43777224 -0.08461108 -0.2986462 0.030049134
0002c0 bd d9 88 bc 2e 22 3f 3e f1 b1 b4 be 1c d8 45 be
       -0.016705388 0.18665382 -0.3529201 -0.1932072
0002d0 7f 9e c6 3e 0c ec 34 be 77 67 6a bd c2 0b 02 be
       0.38792798 -0.1766817 -0.057227578 -0.12699798
0002e0 d3 4a 1f 3d 24 3c 46 be 01 f3 de 3e 14 64 1b be
       0.038889717 -0.1935888 0.43544772 -0.15174896
0002f0 62 26 db bd a8 80 8d be e7 aa b8 be 2e ee a1 3d
       -0.1070068 -0.2763722 -0.36067888 0.07906757
000300 ef 55 01 be bf 6e 34 bd ae 87 73 bd 60 73 9f 3e
       -0.12630437 -0.04405093 -0.059455566 0.31142712
000310 bc 42 b5 3d a0 81 80 3e e1 9c c4 bd e1 77 ad 3d
       0.08850619 0.25098896 -0.09600235 0.08470131
000320 84 2c ad bd 73 c5 da 3d 0b b6 3e bc ef 20 23 3e
       -0.08455756 0.10682192 -0.011640082 0.15930532
000330 a6 53 9e 3e b9 17 10 3e bc e8 2d bd 1a c9 24 bd
       0.30923194 0.1407155 -0.04245828 -0.040230848
000340 ad 15 6d be 0a 08 5a 3d 15 3b fe be fe f0 ab bc
       -0.231528 0.053230323 -0.4965445 -0.020988937
000350 31 b3 b6 bb 50 7d ee be d0 5b 79 3e 7f 51 85 bd
       -0.0055755605 -0.4657998 0.2435143 -0.06509685
000360 12 1c 1c be 60 f9 04 be 15 83 da bd 6f 64 4f be
       -0.15245083 -0.12985754 -0.10669533 -0.20253156
000370 7b de 84 3e 39 a5 c6 bd b5 04 63 bd 49 39 06 be
       0.2595099 -0.096994825 -0.05542441 -0.1310779
000380 c1 78 99 3c d4 8c 86 bd ea 6f e5 3e a2 35 bd 3c
       0.018734338 -0.065698296 0.44811946 0.023096863
000390 17 3f 18 3e 05 03 dc be 54 87 3a be 6f db 8d bd
       0.14867817 -0.42971054 -0.18215686 -0.06926619
0003a0 42 0a a8 be 06 93 33 3d 81 73 6f 3e 76 90 7d be
       -0.32820326 0.043841384 0.23383905 -0.24762139
0003b0 32 36 08 be b7 fa 36 3e 43 5b 0f bf 89 fc f7 bd
       -0.13301924 0.17869078 -0.5599863 -0.12108714
0003c0 24 dd 5d 3e 84 60 8b 3d fb 47 ac bc 5c c8 df bc
       0.2166639 0.06805518 -0.021030417 -0.027317218
0003d0 54 d7 b9 bd 89 34 fc 3d 2e 15 d2 3d d0 5e 21 bc
       -0.09074274 0.12314708 0.10257946 -0.009849265
0003e0 fe 80 bd be 94 43 3a be 90 16 1e 3d 88 74 e5 bd
       -0.37012476 -0.18189842 0.038595736 -0.11203867
0003f0 69 a5 c7 3c e0 14 02 3c 01 6b b9 bd 4f 25 47 be
       0.024370866 0.007939547 -0.090536125 -0.19447826

encoder.conv_head.1.res_block_core.3.bias f4 [8]
000000 c2 d1 a8 bb 78 cd 55 bc fd 8b 45 bb ef 96 ef bb
       -0.005151958 -0.013049476 -0.0030143254 -0.007311694
000010 e4 3f de bb 03 36 43 bc bd a0 15 b8 95 b2 72 bb
       -0.0067825187 -0.011914733 -3.5674067e-05 -0.0037032713

critic_linear.weight f4 [1, 392]
000000 99 a1 65 b9 27 3d 12 b9 7b 29 b8 39 87 a1 a9 39
       -0.00021899342 -0.00013946426 0.0003512612 0.0003235454
000010 3e fc 72 ba 74 60 18 ba 76 28 14 ba b2 2e 2a ba
       -0.00092691544 -0.00058127125 -0.0005651781 -0.00064919435
000020 c2 9d 01 ba 08 5d 1b b9 7e 6f 5e 3a 17 99 8a b9
       -0.0004944467 -0.00014816609 0.00084852416 -0.00026435472
000030 0a bb c1 b9 1b 84 c5 b9 1b f8 1a ba ab 92 47 3a
       -0.00036951184 -0.00037673194 -0.00059116044 0.0007613103
000040 06 b0 9c 38 d0 b7 65 3a e8 24 0c 39 8f 15 93 b9
       7.4714466e-05 0.0008763047 0.00013365189 -0.00028054087
000050 65 19 25 3a 35 f4 e2 39 65 2d 01 3b 23 0b d2 37
       0.00062980346 0.00043288028 0.0019710895 2.5039137e-05
000060 32 90 f0 38 61 a7 25 3a 73 a8 89 39 55 ca b1 b9
       0.0001147095 0.0006319192 0.0002625618 -0.0003391082
000070 58 06 bb b7 ce a4 e3 39 81 01 be b7 df 99 93 39
       -2.2295091e-05 0.00043419603 -2.2650465e-05 0.00028152668
000080 e0 bd 83 ba 99 77 84 3a e3 49 1b ba 79 21 cd 39
       -0.0010051094 0.0010106444 -0.0005923791 0.00039125586
000090 cf a7 af 3a c9 46 0b ba b2 35 f6 b9 88 d8 c5 39
       0.0013401451 -0.0005312977 -0.00046960782 0.00037736096
0000a0 48 4a 34 39 66 51 a9 b8 6d 0e 1d ba e0 a7 72 3a
       0.0001719381 -8.0737096e-05 -0.00059912243 0.00092565827
0000b0 6c 9a 98 3a fd 56 51 b9 a4 76 07 b9 62 98 50 b9
       0.0011642701 -0.00019964199 -0.000129188 -0.00019893193
0000c0 5b 8b 6d 3a 3b 8c 86 39 07 c9 e9 b9 ae 22 8e 39
       0.0009061598 0.00025662952 -0.00044591 0.0002711019
0000d0 05 65 ca 38 64 36 6a b9 0b 24 16 39 df b5 67 ba
       9.650927e-05 -0.00022336241 0.00014318542 -0.00088390516
0000e0 ea f5 0b ba 9d 80 a7 b9 1d 8d b0 38 43 55 98 3a
       -0.0005339073 -0.00031948547 8.4186184e-05 0.001162209
0000f0 4d 9e df 3a 79 15 41 38 ba a4 37 3a 65 11 f2 39
       0.0017060727 4.6034784e-05 0.0007005442 0.00046170797
000100 84 4f 1b 39 c7 af 77 39 50 83 ef 39 c8 7a 74 ba
       0.00014811574 0.00023621238 0.00045683468 -0.0009326157
000110 61 39 fa 39 fe fb ad b9 3a 17 36 3a 51 e1 18 b9
       0.00047726466 -0.0003318488 0.000694621 -0.00014579787
000120 d2 12 e5 3a 0a ef 08 b6 26 86 7e ba 1b b6 86 ba
       0.0017476922 -2.0404718e-06 -0.0009709321 -0.001027766
000130 e1 18 3c 3a f4 a1 00 ba 05 3d 4a 39 2a 98 6d ba
       0.0007175338 -0.00049069454 0.00019286953 -0.0009063507
000140 62 56 94 b9 1f a1 2c ba e8 bb d2 b9 cb 86 78 ba
       -0.0002829312 -0.0006585288 -0.00040194322 -0.0009480535
000150 3c fb f0 b9 a8 8b a9 38 a1 b1 f5 37 d4 01 2e 3a
       -0.0004596355 8.084561e-05 2.928899e-05 0.00066378457
000160 fd 5c d7 36 dc 15 d9 b9 6b 43 d8 39 5a cb fa b8
       6.4183246e-06 -0.00041405752 0.0004124896 -0.00011958806
000170 63 3d 6a 3a 33 ae 39 3a e9 70 9a 3a bd a9 1b b9
       0.0008935539 0.00070831476 0.0011782917 -0.00014845184
000180 03 ff 66 3a 3b d6 5e ba 8b f3 a4 3b c0 82 4c 3a
       0.00088118034 -0.0008500551 0.0050339154 0.00078014657
000190 38 57 90 3a 3a 01 08 3a ae 36 31 3a 07 87 1b 3b
       0.0011012321 0.0005188171 0.0006760162 0.0023731606
0001a0 41 47 b1 b8 01 d2 bc 39 03 a5 13 3a ef 1f 9b 39
       -8.45329e-05 0.0003601462 0.00056321936 0.00029587696
0001b0 d1 d1 62 3a de 08 6e 39 fd cc 1c ba 3f fd 26 ba
       0.0008652481 0.00022700752 -0.00059814734 -0.0006370134
0001c0 87 26 3d 3a 8e da a7 38 c5 5b b7 b9 1f 2b 0c 3b
       0.0007215519 8.0038895e-05 -0.00034972854 0.0021388007
0001d0 38 66 1c 39 6e 0c 2e ba d6 52 14 b9 6b d8 bd 3a
       0.00014915399 -0.00066394254 -0.00014145239 0.0014484053
0001e0 bf 81 08 ba 74 1c 11 ba a0 c4 7f 39 6f 46 72 3a
       -0.0005207322 -0.0005535551 0.00024391944 0.0009242063
0001f0 2c 9f 58 ba 42 bd 3e ba 17 32 be b8 aa 5a 8a b9
       -0.00082634646 -0.00072761264 -9.069236e-05 -0.0002638896
000200 d6 bb d9 38 3b a0 e9 3a 94 f4 b1 3a 92 f1 73 ba
       0.000103823535 0.0017824242 0.0013576918 -0.0009305711
000210 02 d5 34 39 19 1e d7 b9 54 d2 37 ba 17 64 6c 39
       0.0001724549 -0.0004103042 -0.00070122373 0.00022544
000220 ac 98 0a 3b 26 9e bd 39 d9 fc 28 38 e7 ed 7f b9
       0.0021148128 0.0003616672 4.0289804e-05 -0.0002440732
000230 4f 49 9b ba 79 74 cc ba b8 2d 98 3a 72 70 ef 3a
       -0.0011847409 -0.0015598676 0.0011610305 0.0018267764
000240 39 e5 80 3a 70 05 2c 3a 72 ac 87 37 ae 9b 2d ba
       0.0009833939 0.00065620895 1.6173555e-05 -0.00066226244
000250 db 7e e1 ba b5 f4 01 ba a2 7a 3a ba f7 c6 51 b8
       -0.0017203944 -0.00049574237 -0.00071136106 -5.0014783e-05
000260 43 17 71 38 0d 07 b9 ba a9 f3 26 b9 f5 01 9b ba
       5.748054e-05 -0.0014116481 -0.00015921764 -0.0011826145
000270 99 f0 a0 ba 8c 90 5a 38 c9 3d 8b 3a bd 37 52 39
       -0.0012278735 5.210987e-05 0.0010623272 0.00020047925
000280 8f b5 a6 b9 fc f9 b4 ba 0b f6 b4 b9 b4 3c 5d b9
       -0.0003179726 -0.0013807411 -0.00034515592 -0.00021098816
000290 9c 25 f8 3a 9c b3 94 3a 12 17 41 39 52 c5 24 39
       0.0018932107 0.0011345032 0.00018414509 0.00015713766
0002a0 81 b4 cd 39 44 aa 39 ba 56 5d bf 39 3f 85 21 3a
       0.00039235133 -0.00070825615 0.000364999 0.0006161518
0002b0 ca 1a 25 3a 7c c7 78 3a ed fa 8c 3a 22 63 87 39
       0.00062982424 0.00094901747 0.0010755934 0.00025823066
0002c0 bb ee d3 39 ea 68 03 ba ca 4a a0 3a 7b fb ac 3a
       0.00040422924 -0.0005012887 0.001222932 0.0013197506
0002d0 c1 a2 18 39 2d 0c 5d 3a dd a2 de b9 85 35 14 b9
       0.0001455648 0.0008432295 -0.00042464482 -0.00014134317
0002e0 42 b8 57 b9 5c 9a 0f ba 0c 4e 60 39 9c 8f 0b ba
       -0.00020572639 -0.00054780184 0.0002139138 -0.00053238287
0002f0 d4 83 d4 38 1d 78 9e 3a 17 69 a9 3a e1 eb de 3a
       0.00010133503 0.001209024 0.0012924996 0.0017007553
000300 ec bd 27 3a 65 8c 91 ba 11 12 71 3a 2a 6a d5 ba
       0.0006398845 -0.0011104463 0.00091961125 -0.001628225
000310 99 19 56 ba 42 c9 01 b9 65 6c 0c b8 78 4b 3c 3a
       -0.00081672665 -0.00012377373 -3.347955e-05 0.00071828766
000320 2d 0a d0 39 36 ff fd 39 25 11 7f 3a 5c e4 65 ba
       0.00039680433 0.00048446067 0.0009730033 -0.0008769685
000330 56 a2 43 ba 6e 2f 9f b9 f1 17 47 b9 7f fa 44 b9
       -0.00074628496 -0.0003036218 -0.00018987038 -0.00018785334
000340 06 41 28 b9 93 47 3a b7 cf 3d 3f 3a 37 8d 4d 39
       -0.00016045952 -1.1103129e-05 0.0007295282 0.0001960293
000350 66 f5 15 3a d7 48 ca b9 ae f9 9a ba 79 a5 9a b9
       0.0005720466 -0.00038582712 -0.0011823678 -0.00029496456
000360 2c f0 4f 3a d7 f2 49 3a ae 04 89 39 50 86 1f 3a
       0.0007932212 0.00077037275 0.00026134163 0.0006085383
000370 46 57 aa 3a db 3b 81 39 f6 88 32 ba 9c 8c 0b 3a
       0.001299598 0.00024649393 -0.000681057 0.00053233816
000380 0c ca 85 3a 59 ed 0d 39 98 b0 a6 3a 0f 08 8f ba
       0.0010207309 0.00013535227 0.0012717424 -0.0010912436
000390 ee c2 25 3b 29 e1 86 3a 86 da 2d 3a 37 89 c5 b7
       0.002529319 0.0010290492 0.0006631989 -2.3548126e-05
0003a0 9f 2a ac b9 87 54 5a 3a cd 9b c0 3a e4 0b 80 b9
       -0.00032838152 0.00083286356 0.001469487 -0.00024422922
0003b0 78 01 81 39 7f 84 12 39 4d 10 2a 39 a9 e1 c4 ba
       0.00024605892 0.00013973004 0.00016218536 -0.0015020865
0003c0 7d 04 85 ba 4b 96 12 bb 6c b4 05 3a 64 40 89 ba
       -0.0010148432 -0.0022367414 0.00051004323 -0.001047146
0003d0 48 02 53 3a fb aa 1b b9 15 ed 74 ba fe 03 89 ba
       0.0008049351 -0.00014845647 -0.00093431893 -0.001045346
0003e0 37 c4 40 ba 68 53 91 b9 50 54 fb 39 48 00 58 ba
       -0.0007353457 -0.00027718698 0.00047937268 -0.0008239788
0003f0 b2 58 b8 ba 5f 4a 18 b9 47 cd 62 ba d7 4d 12 bb
       -0.0014064519 -0.00014523555 -0.00086518045 -0.0022324228

action_parameterization.distribution_linear.weight f4 [5, 392]
000000 b1 fd d4 3d b6 4f 0d bd 10 a6 f6 bd fd 83 b7 3d
       0.1039995 -0.034499846 -0.12043393 0.08960722
000010 13 16 a6 bd 39 5e 0a 3e c0 47 25 3e 3b 4a 19 3e
       -0.08109679 0.13512506 0.16140652 0.14969723
000020 64 3d d4 bd bd 1d 09 3c b9 be 10 bb b6 f3 c6 bc
       -0.10363272 0.008368907 -0.0022086336 -0.024286132
000030 ad a4 8d bc 0f 3f f3 bd bf 60 2b be d2 59 56 be
       -0.017290438 -0.11877262 -0.16736124 -0.20932701
000040 a9 9c 50 be e7 ae 17 3c ca 90 72 bd 63 8e 54 3b
       -0.20372261 0.009258009 -0.059220113 0.0032433502
000050 7d f2 77 bd 44 58 11 3c ec 1e 34 be 28 c7 bc bc
       -0.06053399 0.008871142 -0.17589921 -0.023044184
000060 f0 56 ef bd 5f e4 97 bd 90 7c a7 bd 0a 7c 49 be
       -0.11686504 -0.07416605 -0.08178055 -0.19676223
000070 42 32 bf bd 6a bd 16 be 37 f2 2f bd 07 96 d6 3d
       -0.09335758 -0.14720693 -0.042955603 0.10477834
000080 c2 72 80 be e2 5d 6a bd 52 b0 12 3d 26 aa 51 3c
       -0.25087553 -0.05721844 0.035812683 0.012796914
000090 95 13 ff 3c 91 3c 61 bc db c1 e7 bd 13 38 b3 bd
       0.031137267 -0.01374735 -0.11316272 -0.0875093
0000a0 30 52 07 be fd ec b9 3d b6 dc a2 3c 83 12 31 3d
       -0.13214946 0.09078405 0.019880634 0.043230545
0000b0 4e f5 a8 bc 1d 27 9f 3b b7 e6 56 bd 7a c0 74 bd
       -0.020624783 0.0048569576 -0.05246612 -0.059753872
0000c0 c6 89 28 bd ec 5f d6 bd 5f 82 b7 bc 66 db 76 bd
       -0.041147016 -0.104675144 -0.022401033 -0.06026783
0000d0 81 88 ca 3c 61 a0 57 3b 54 8a 02 be 2e 83 13 be
       0.024723293 0.003290199 -0.1274808 -0.1440551
0000e0 a8 f6 fd 3d 81 7b 0a 3d 3d d6 0c bd d1 0b 8d 3d
       0.124005616 0.03380919 -0.034384 0.068870194
0000f0 04 c9 04 3e 69 16 30 be fa 1c 41 be 63 31 01 3e
       0.12967306 -0.17196049 -0.1885871 0.12616496
000100 e4 f5 24 bd e1 65 94 3c 31 8e 13 3e fa 30 63 3d
       -0.040273562 0.018114986 0.1440971 0.05546663
000110 63 62 6a bd c6 69 c6 bc 2f 0d f0 bd 4e cc 88 bd
       -0.057222735 -0.024220359 -0.117212646 -0.06679593
000120 a0 6a 1a 3d 24 5c e4 bd d4 28 ce bd 18 95 a5 3d
       0.03769934 -0.11150387 -0.10066381 0.08085078
000130 fb 6f b2 3b 53 ca fc bc 83 e4 e1 3d 1a f7 ce bd
       0.005445478 -0.030858194 0.11029913 -0.10105725
000140 b8 b7 dc 3c 7c 79 67 bb 79 e7 3b 3d b4 76 c8 3c
       0.026943073 -0.0035320213 0.045875046 0.024470665
000150 65 2a 95 3d 95 13 1f bc d7 37 0f be 2a 2a 84 bd
       0.07283477 -0.009709259 -0.13986145 -0.06453355
000160 da b7 90 3d 79 89 69 bd 6a c7 b8 3c da 2e 66 3e
       0.07066317 -0.05701587 0.022556026 0.2247881
000170 84 a3 8c 3c 21 66 d4 bd 76 8f 89 bc 9e 9a 6e be
       0.017167814 -0.10371042 -0.01679204 -0.2330117
000180 ea e6 9a bd ff 51 0a be fb e5 68 3e 73 f8 03 be
       -0.075635746 -0.13507842 0.2274398 -0.12887745
000190 f0 12 b9 bc 99 f1 fc 3c 99 81 1c bc 21 af d9 3c
       -0.022592038 0.030876921 -0.009552383 0.026572766
0001a0 af 7c 53 bd 4b 66 e6 3d ec ab 22 be 1c 2d c1 bc
       -0.05163258 0.112499796 -0.15885895 -0.02358108
0001b0 27 f3 90 bd 9d 41 94 3c 40 14 5b bc 93 84 a4 3d
       -0.07077628 0.018097693 -0.013371527 0.08033099
0001c0 72 d6 89 3a 6f 22 a9 bd 57 12 1e be 6b 80 dd bd
       0.001051618 -0.08258521 -0.15436684 -0.108155094
0001d0 9e 7f ad bd fa a2 6f bd d8 98 ff 3c 45 0c 9b 3d
       -0.08471607 -0.058505036 0.031200811 0.075706996
0001e0 73 7a 7b bc ea ea 14 bd b9 5a f0 3c 60 bc f2 bd
       -0.015349018 -0.036356844 0.029340135 -0.11852336
0001f0 d9 9c bd 3c ae 95 09 3e 95 f1 92 3d d5 e3 4f 3d
       0.02314608 0.13436005 0.07174984 0.050754387
000200 ce 47 f5 3c d4 35 95 bd e6 fd 4a be 47 ff b0 bd
       0.029941466 -0.072856575 -0.19823417 -0.0864244
000210 b1 c2 b5 bc 7b b9 bb 3d 91 39 e7 3c 81 ca ad 3c
       -0.022187563 0.09166237 0.028225692 0.021214725
000220 fa 16 8f bd f9 47 f0 bd 65 33 ba 3d 3c 03 19 bd
       -0.06986804 -0.11732478 0.09091834 -0.0373566
000230 b6 fb 28 bc 2c 34 3d be bb 54 3d 3e 29 2c a1 bd
       -0.010313919 -0.18476933 0.18489353 -0.07869751
000240 bf 19 f5 bc a4 21 d1 3d e8 31 4f 3c a4 1b 03 be
       -0.029919503 0.102114946 0.012646176 -0.12803513
000250 a6 e7 91 3d ad 01 b2 bd e2 4f 98 3c b4 59 da bd
       0.071242616 -0.08691726 0.018592779 -0.10661641
000260 70 92 7e 3d f6 2e 50 bd 9c 16 98 bd 2c 80 55 3d
       0.062151372 -0.050826035 -0.074261874 0.052124187
000270 04 38 9b bb 18 43 f6 bd fd 84 90 bd e3 49 69 3d
       -0.004736902 -0.12024516 -0.070566155 0.05695523
000280 f7 1a c5 bc a2 1f 3f be bc dd d0 bd 45 cc 92 bd
       -0.02406071 -0.1866441 -0.101985425 -0.071678676
000290 71 11 01 be d6 76 3b bd 36 60 bf bc 6f b8 50 be
       -0.1260431 -0.045767628 -0.023361307 -0.20382856
0002a0 c1 3b 9d bd b1 c8 b2 bc 9e aa 5d bd dc af 0c bd
       -0.07677413 -0.021824213 -0.05411779 -0.0343474
0002b0 f0 8e b0 3d f1 c5 ce bd 73 a9 24 bc a6 27 2f be
       0.08621013 -0.10096348 -0.0100501655 -0.17104968
0002c0 66 73 64 3b 15 68 8a bd 84 b7 ad 3d 5c c1 61 bd
       0.0034858822 -0.06758133 0.084822685 -0.055116042
0002d0 87 3b e0 bc 0b 64 8f 3d 8b 9a 57 be 31 cf 3e 3e
       -0.027372135 0.070015036 -0.21055047 0.18633725
0002e0 28 e6 12 3c 82 36 ad bd 64 4a 21 bd b7 87 f3 bd
       0.008966006 -0.08457662 -0.039377585 -0.1189112
0002f0 92 e9 46 bd 6a 85 ef bd bf 84 07 3d d4 de d6 bc
       -0.048562594 -0.116953686 0.03308558 -0.0262293
000300 b5 b2 6c 3d ca c5 4a bd 64 0e 5f 3e 3f ec 83 bd
       0.057787616 -0.049505033 0.21782833 -0.06441545
000310 c0 ed ec bd 39 44 7c bd cf 14 86 be aa 24 77 bd
       -0.11568785 -0.0615885 -0.2618775 -0.0603377
000320 4e a2 0b bc b1 95 10 be a6 31 b6 bd 97 04 ab 3d
       -0.008522583 -0.14119603 -0.088961884 0.08350485
000330 82 c6 8f 3d 7c 21 3b 3d 16 43 08 bc a8 db 12 3e
       0.07020284 0.04568623 -0.008316776 0.14341605
000340 18 ec 93 3d 06 07 a1 bd 10 4a 31 bd 36 0e 11 bd
       0.07222766 -0.07862668 -0.043283522 -0.035413943
000350 35 78 0f bb a1 40 f6 3c 6f 6a 80 bd 0b a2 e7 3c
       -0.0021891717 0.030060114 -0.062703006 0.02827551
000360 be e6 0d be ef ff 97 bd ca 9b a5 3b 41 2f 03 be
       -0.13857552 -0.07421862 0.005053972 -0.12810995
000370 cc 51 c3 bb 20 06 d8 3c 97 1f f1 bd aa 35 a7 bd
       -0.0059606787 0.026370108 -0.117736034 -0.081645325
000380 14 ff 98 be 4a 10 21 be 51 eb 65 be 90 4d f7 bc
       -0.2988211 -0.1572887 -0.22453047 -0.030188352
000390 8e 7f 20 bd 33 04 5f 3d 2f 2c 3b bd 19 dd ba 3d
       -0.039184146 0.054447364 -0.045696434 0.09124202
0003a0 3e 3c 42 bd 56 d0 74 3d 2b c5 28 be 3c 5d 4e bd
       -0.047420733 0.059768997 -0.16481464 -0.050381884
0003b0 44 78 e7 bc bb 49 57 bd 3e 23 8c 3c c7 f8 a0 bd
       -0.02825559 -0.05256055 0.017106649 -0.078599505
0003c0 5c 58 9c bd 80 c3 3b 3d 6f 38 d5 bd 67 9b 9e bd
       -0.07634041 0.04584074 -0.104111545 -0.077444844
0003d0 c9 ad 8e bb 98 05 cb 3c e1 4d f2 bc 4c 64 90 3d
       -0.004354213 0.02478294 -0.029578151 0.0705038
0003e0 22 46 1d bd 2a aa 47 3d 46 9f f0 bd 17 6f f5 3d
       -0.038396962 0.048746265 -0.11749129 0.11984079
0003f0 16 56 04 3e 99 13 67 3d c7 e9 44 be 91 fc 11 be
       0.12923464 0.056415174 -0.19229804 -0.14256503

action_parameterization.distribution_linear.bias f4 [5]
000000 6d 8a c4 bb 16 b0 b4 39 db 74 5b 3b aa b0 50 b8
       -0.005997947 0.0003446347 0.00334864 -4.9755596e-05
000010 11 12 92 3a
       0.00111443

exp_avg f4 [8, 2, 3, 3]
000000 06 12 9a b7 ce 98 53 b9 fe b1 37 3a bb 5e 60 b9
       -1.8366623e-05 -0.00020179452 0.0007007419 -0.00021397595
000010 15 36 88 ba a0 5e 58 b9 b0 5a 9f 38 3d ea 88 39
       -0.0010392094 -0.00020634616 7.598603e-05 0.00026114463
000020 28 df 83 38 0a 0e 2d b8 cb 35 9c b9 e0 04 10 39
       6.288133e-05 -4.125949e-05 -0.00029794718 0.00013734726
000030 18 4d 91 b9 be 9f 80 b9 0d 69 87 39 ec 9f 3e b8
       -0.00027713994 -0.0002453308 0.00025827475 -4.544847e-05
000040 f6 75 8d b9 c0 7c f7 35 f6 92 56 3a 33 05 0c b9
       -0.00026981503 1.8439241e-06 0.0008185351 -0.00013353377
000050 4b d1 94 3a 47 cf cf 39 c7 e7 f4 b9 5a e8 3d 3a
       0.0011353878 0.0003963655 -0.00046711994 0.0007244401
000060 65 0c 22 3a 3b 2e cc 39 af f0 ab 3a 4e 0b a5 b8
       0.00061816565 0.00038944356 0.0013117994 -7.869919e-05
000070 91 1c ce b9 6e 1c 91 39 80 52 12 38 7e f3 fb b9
       -0.00039312665 0.00027677737 3.4885947e-05 -0.00048055867
000080 37 62 96 b9 5c d1 17 39 2b e9 c7 b9 ac 91 4a 39
       -0.00028683405 0.00014478475 -0.00038129961 0.00019318488
000090 68 20 a6 b9 20 29 12 3a 2b f5 68 b9 44 27 84 ba
       -0.00031686132 0.0005575586 -0.00022216576 -0.0010082503
0000a0 43 e8 fe b9 77 33 39 ba e4 0e 90 b9 93 74 e9 39
       -0.00048619704 -0.0007064859 -0.00027476915 0.00044528078
0000b0 fe a1 4c b7 1b 12 3b 39 cd 60 5c 39 96 54 87 37
       -1.2197064e-05 0.00017840455 0.00021016896 1.6132642e-05
0000c0 09 5d 1b b9 f1 24 e9 38 49 16 df b8 55 fd b9 b8
       -0.0001481661 0.00011117187 -0.000106376196 -8.868674e-05
0000d0 fc c1 89 39 11 e9 8d b8 6c 70 2d 39 18 26 b5 b9
       0.00026275206 -6.766816e-05 0.00016540446 -0.00034551392
0000e0 2f ae 9f b9 30 c1 ae 38 52 97 2b ba e6 11 cf b9
       -0.0003045662 8.3329505e-05 -0.0006545681 -0.00039495452
0000f0 30 10 06 3a f2 01 f3 38 b0 b6 18 3a 13 35 71 39
       0.00051141065 0.00011587505 0.00058255624 0.00023003323
000100 d8 d4 c2 37 74 1f 13 39 71 5e 97 b8 99 a9 c0 37
       2.3225715e-05 0.0001403073 -7.217832e-05 2.2967159e-05
000110 bc e7 07 38 07 61 e5 39 97 13 a7 39 a6 ae 02 3a
       3.2402328e-05 0.00043750575 0.00031867318 0.0004985131
000120 1b bb 8c ba c4 cf 1e ba 11 7d 81 ba b6 69 6c 38
       -0.0010736914 -0.0006058181 -0.0009879192 5.6365236e-05
000130 7c dc 29 39 36 04 39 37 c7 40 0c ba cf 90 58 b9
       0.00016199233 1.102784e-05 -0.0005350229 -0.0002065331
000140 d8 3d cd b9 3f df 5b 39 2f e5 b2 36 72 cc 00 ba
       -0.00039146724 0.00020968633 5.331494e-06 -0.0004913277
000150 6e f3 32 b8 3f a1 8a b7 4f ab 1e b9 d5 03 92 b8
       -4.266522e-05 -1.6525968e-05 -0.00015131872 -6.962536e-05
000160 11 1f 30 39 a8 1c f0 b8 d2 8d 82 38 e4 d4 49 3a
       0.00016796241 -0.000114494294 6.225299e-05 0.00076992647
000170 81 23 e3 39 4b c4 b5 b8 7f f5 3a 3a 4a a3 0e 37
       0.00043323266 -8.667315e-05 0.00071319187 8.501878e-06
000180 b1 25 34 39 b9 3c d7 39 d7 bc 04 3a 37 af 83 b9
       0.00017180179 0.00041053238 0.000506354 -0.00025116812
000190 d6 60 b3 b9 00 3c f0 b9 2e d2 d8 b9 4d b3 45 b9
       -0.0003421369 -0.0004582107 -0.00041355327 -0.00018854179
0001a0 d6 08 8f 38 66 ec 97 b9 a8 9a b8 38 c0 5e d8 b8
       6.820417e-05 -0.00028977095 8.802611e-05 -0.00010317331
0001b0 cc 08 cc b9 5d e7 84 39 3e b5 24 39 0a 82 d8 39
       -0.00038916466 0.0002534938 0.00015707777 0.00041295617
0001c0 b2 be 59 39 fb 5b ff 38 2f 15 79 38 d6 53 dc b9
       0.00020765772 0.0001217648 5.9385955e-05 -0.00042024133
0001d0 0b b8 2a b9 35 41 f3 b6 a1 f6 99 b8 74 78 38 38
       -0.00016281025 -7.2495554e-06 -7.341547e-05 4.39812e-05
0001e0 f8 47 e5 b8 9c e6 af b8 83 f2 41 b9 d8 83 26 39
       -0.00010932976 -8.3876046e-05 -0.00018496257 0.0001588011
0001f0 d1 75 00 b9 29 64 b5 b9 58 32 5e b9 11 fa 1b 39
       -0.00012250921 -0.00034597635 -0.00021190324 0.00014875109
000200 2d 02 83 b9 fd af 24 39 91 27 68 39 4d 65 1c 37
       -0.00024987888 0.0001570582 0.00022139984 9.3219105e-06
000210 b1 33 40 b9 e7 37 87 38 9b fe 46 b9 1b 81 1a b9
       -0.00018329803 6.447714e-05 -0.000189776 -0.0001473468
000220 00 0c cd 38 08 e5 78 b7 05 53 bd 38 9f a9 ba b8
       9.777397e-05 -1.4835277e-05 9.027686e-05 -8.9007655e-05
000230 86 05 15 39 70 b2 5a b9 43 bc 01 b8 7c 8f a0 b7
       0.00014211805 -0.00020856573 -3.093133e-05 -1.9140301e-05

exp_avg_sq f4 [8, 2, 3, 3]
000000 44 d7 1e 37 fb 4f 19 37 22 96 1b 37 5f 03 07 37
       9.467654e-06 9.138133e-06 9.2736755e-06 8.047412e-06
000010 5a d4 5e 37 1e 0c 1b 37 ad 9c d1 36 b1 ff 31 37
       1.3281673e-05 9.241541e-06 6.246925e-06 1.0609555e-05
000020 3c 0e f1 36 e6 3d 2f 34 83 bc ce 35 14 af 8e 35
       7.184017e-06 1.6320664e-07 1.540306e-06 1.0630779e-06
000030 4e 04 89 35 3c eb 8d 36 c1 20 cb 35 2f 71 c1 35
       1.0208548e-06 4.2295123e-06 1.5134211e-06 1.4412561e-06
000040 31 4a 8f 36 a8 5b 80 36 f1 2c 64 37 63 54 aa 37
       4.270369e-06 3.8253675e-06 1.3600323e-05 2.0304875e-05
000050 7b 90 10 37 ca 69 bd 37 ae 91 8f 37 e2 10 88 37
       8.616708e-06 2.2579818e-05 1.7114766e-05 1.6220325e-05
000060 e8 e6 a4 37 b1 3c 63 37 78 a4 45 37 54 ef bb 36
       1.9657848e-05 1.3544385e-05 1.1780408e-05 5.6008957e-06
000070 68 d1 18 37 82 18 1b 36 43 cc 1e 37 bd 1b f9 36
       9.108662e-06 2.3111065e-06 9.465092e-06 7.4240074e-06
000080 37 d0 e5 36 0a c2 b7 36 02 3f de 35 97 37 1b 36
       6.848971e-06 5.476414e-06 1.6558627e-06 2.3129157e-06
000090 38 93 93 37 2a 78 c3 37 54 02 60 37 97 90 58 37
       1.759232e-05 2.3301767e-05 1.33519825e-05 1.2908268e-05
0000a0 d5 ec d5 37 0d f5 4b 37 b3 a2 2f 37 65 ca 97 37
       2.5501862e-05 1.2156798e-05 1.0468694e-05 1.809485e-05
0000b0 cf 6c 0f 37 32 40 83 36 47 e8 f7 36 21 ed 2a 35
       8.548798e-06 3.9115776e-06 7.3882143e-06 6.3675003e-07
0000c0 4a 7f a4 35 6f 80 10 36 04 1a 0a 35 1d 56 a3 35
       1.2255998e-06 2.153243e-06 5.1446864e-07 1.2169509e-06
0000d0 27 7b 0c 37 29 fd 42 35 99 6d 86 36 88 5d 0c 37
       8.373324e-06 7.263903e-07 4.00627e-06 8.366427e-06
0000e0 a2 78 72 36 c8 ce 0d 37 67 75 1c 37 82 f0 00 37
       3.6131028e-06 8.4524e-06 9.325659e-06 7.685392e-06
0000f0 4f 54 c6 36 3e 2e e5 36 17 7c c3 36 5c 81 fe 35
       5.9106746e-06 6.830115e-06 5.825899e-06 1.8962123e-06
000100 14 ce 17 35 59 fe c7 34 b0 81 43 34 bd d3 2d 34
       5.6551767e-07 3.72517e-07 1.820797e-07 1.618891e-07
000110 89 af 64 34 2b ba 7f 36 6d 40 14 36 ea 0f ee 35
       2.1298014e-07 3.8106325e-06 2.209122e-06 1.7737013e-06
000120 30 fc a9 37 ac d7 72 37 8d bd a8 37 20 1a 1e 37
       2.0263804e-05 1.4474539e-05 2.0115427e-05 9.423617e-06
000130 5c 82 81 37 4b ab 50 37 90 e5 ca 36 30 4f 93 36
       1.5438702e-05 1.2437648e-05 6.0467937e-06 4.39016e-06
000140 02 37 93 36 6d 37 92 36 95 45 a7 33 f2 a3 15 37
       4.387345e-06 4.3575915e-06 7.7892004e-08 8.919264e-06
000150 22 43 93 34 2e d5 9c 35 3a 38 cf 35 80 32 0f 35
       2.742973e-07 1.1684949e-06 1.5439066e-06 5.334514e-07
000160 d9 3f 15 35 b7 00 50 35 6e 7c d3 36 05 f3 45 37
       5.5599736e-07 7.748708e-07 6.3027755e-06 1.1798697e-05
000170 b3 ff fb 36 1c 3c 09 37 33 c1 a3 37 3c e1 4d 37
       7.51015e-06 8.179832e-06 1.952108e-05 1.2271394e-05
000180 0b 67 0e 37 a5 b5 18 37 9c 31 ee 36 a0 0d 93 35
       8.487851e-06 9.102198e-06 7.098728e-06 1.0956319e-06
000190 af 04 ce 36 7e 48 94 36 aa 27 ee 35 15 30 af 36
       6.1398237e-06 4.419183e-06 1.7743926e-06 5.221004e-06
0001a0 4d 53 6b 36 e9 8a 38 35 1d 47 96 36 d8 f9 95 36
       3.5066216e-06 6.874748e-07 4.478627e-06 4.4696317e-06
0001b0 9f 09 0b 37 6e 13 91 36 54 7c e5 36 8e ed c2 36
       8.287286e-06 4.3235987e-06 6.8392055e-06 5.8093055e-06
0001c0 05 13 5c 37 34 d7 e1 36 e3 8d 20 37 f1 f9 bf 36
       1.311745e-05 6.7305755e-06 9.569779e-06 5.7213406e-06
0001d0 8b 39 41 37 d5 a7 98 34 db cc bb 35 c3 7e 9a 34
       1.1517094e-05 2.843432e-07 1.3992207e-06 2.8776967e-07
0001e0 1f b1 48 34 39 14 73 35 5a a3 ac 34 5a 2f 7a 35
       1.8690888e-07 9.055398e-07 3.215635e-07 9.3201163e-07
0001f0 d2 a5 47 35 a7 a1 4c 36 1e 67 c2 35 3c 82 91 35
       7.437458e-07 3.0492463e-06 1.4484137e-06 1.0841245e-06
000200 0f e3 09 36 70 66 19 36 07 bf 71 36 4b 1f ce 35
       2.0546756e-06 2.2858403e-06 3.602299e-06 1.5357303e-06
000210 61 fc e5 35 51 41 d1 35 f2 10 1d 36 70 93 52 33
       1.7135281e-06 1.5590723e-06 2.3404687e-06 4.902853e-08
000220 8c cc a7 34 3e 6d df 33 ac 36 38 35 8b 8d f8 35
       3.1255001e-07 1.0404118e-07 6.86249e-07 1.8518634e-06
000230 4b c6 cf 34 e8 c4 91 34 7b 3b 39 34 e6 15 93 33
       3.8701032e-07 2.7151623e-07 1.7251106e-07 6.849204e-08

exp_avg f4 [8]
000000 ec 41 96 b9 7e cd 44 ba 28 59 6c 3a 01 49 b5 3a
       -0.00028659345 -0.00075074274 0.0009015971 0.0013830961
000010 da 5f 28 38 b6 f2 f0 b9 48 7b 30 ba 95 95 3f 39
       4.014359e-05 -0.000459572 -0.00067322375 0.00018270903

exp_avg_sq f4 [8]
000000 e9 d1 b7 37 2a 04 e3 37 83 53 a4 37 ce ec 56 37
       2.1913047e-05 2.7062448e-05 1.9589212e-05 1.2810529e-05
000010 4d e7 97 37 a6 9e 67 38 47 bb 22 37 c2 02 0c 37
       1.810831e-05 5.5222445e-05 9.699556e-06 8.345292e-06

exp_avg f4 [8, 8, 3, 3]
000000 9e 06 08 b9 79 bb 1a 38 11 a7 82 37 d0 12 d1 b8
       -0.00012972436 3.689106e-05 1.5575004e-05 -9.969401e-05
000010 3a 21 bd 38 2b c0 2e b8 cf 13 41 b9 dc 64 ea b9
       9.018411e-05 -4.1663803e-05 -0.00018413294 -0.00044707104
000020 2b 0b f0 b8 0e 1d da b8 41 cd f9 38 4b 0a af b8
       -0.00011446172 -0.00010400462 0.00011911477 -8.3465675e-05
000030 e3 8f 87 b9 54 ad 4d 39 e5 49 eb b8 61 c6 98 b9
       -0.0002585641 0.00019614893 -0.00011219437 -0.00029139503
000040 ab 73 79 b9 16 56 a7 38 93 78 80 b9 1c 7b 79 38
       -0.0002378958 7.979215e-05 -0.00024503897 5.948088e-05
000050 09 7f ff b8 7f c0 ae b8 ca 7b 88 37 ae b2 88 b8
       -0.0001218301 -8.332822e-05 1.6270107e-05 -6.518267e-05
000060 06 e8 29 b9 d5 b1 63 36 0a b5 b4 b7 cc 93 14 3a
       -0.00016203531 3.3929148e-06 -2.1541975e-05 0.00056677754
000070 dd c8 fc 38 31 e7 76 39 54 bd d0 b9 03 81 c0 b8
       0.0001205371 0.00023546514 -0.00039813912 -9.179304e-05
000080 4b 05 d2 b9 5e bb 7b b9 0e 4d 79 b6 3b 7b 74 b9
       -0.00040058265 -0.00024007025 -3.7148743e-06 -0.0002331556
000090 09 13 bd b8 50 e3 67 b9 37 4e 4c b9 89 3b a0 37
       -9.015768e-05 -0.00022114557 -0.00019484093 1.910121e-05
0000a0 c2 37 74 b9 44 29 6b b9 0a d7 d2 b8 1b b0 95 b9
       -0.00023290425 -0.00022426719 -0.000100536345 -0.00028550703
0000b0 b7 85 9a b8 7f e3 04 b9 dd 67 f3 38 be f9 44 39
       -7.3681986e-05 -0.0001267325 0.00011606489 0.00018785053
0000c0 34 87 1e b9 6b 1c ec 38 87 e6 9d b7 91 11 ee b7
       -0.00015118421 0.0001125865 -1.8823206e-05 -2.837999e-05
0000d0 23 16 4a 38 ff ee c5 b8 07 d6 f1 b8 0a 05 a8 b9
       4.818117e-05 -9.4382085e-05 -0.00011531641 -0.0003204721
0000e0 6d 92 37 38 96 50 1a b8 b2 b3 c5 38 9f 50 79 b9
       4.376697e-05 -3.6791513e-05 9.427163e-05 -0.00023776524
0000f0 66 38 f1 b8 76 c3 3d b8 bf 94 90 b9 18 7c 87 b6
       -0.000115022805 -4.524315e-05 -0.00027576645 -4.03776e-06
000100 ac c3 4c b8 f7 a1 87 b8 89 6c f3 37 c7 fd 83 b7
       -4.8819624e-05 -6.46747e-05 2.9018398e-05 -1.5734591e-05
000110 9e fc e9 36 54 64 97 38 48 c8 fc b7 ef 2e 3f b7
       6.9733496e-06 7.218929e-05 -3.0134004e-05 -1.1395415e-05
000120 58 87 47 38 92 4c 6f 37 e9 cd 32 b9 8d f9 1b 39
       4.7571346e-05 1.4263338e-05 -0.0001705211 0.00014874917
000130 d5 f3 ec 39 4f b7 2e b9 e0 b6 3f b7 6e be 22 b9
       0.00045195097 -0.00016662221 -1.1427066e-05 -0.00015520465
000140 b1 2e 51 b8 94 ee 95 39 f9 1c 69 b9 c5 fe d3 37
       -4.9872968e-05 0.0002859725 -0.00022231405 2.5271796e-05
000150 bd 6b 63 b9 3d 9a 66 b9 23 d0 c8 b7 cc 2d 72 ba
       -0.00021688543 -0.00021991968 -2.393878e-05 -0.00092383916
000160 9e 84 64 ba e2 36 5a b9 26 9f b3 b9 d4 ab 1d 39
       -0.0008717271 -0.00020810546 -0.00034260115 0.00015036698
000170 6c 06 b7 b8 79 39 86 b9 98 6f 62 38 81 cd 0b b9
       -8.727316e-05 -0.00025601292 5.398653e-05 -0.00013332629
000180 31 ac 9a 39 83 a7 ed b8 de 20 9d b8 bf b7 8b b8
       0.00029501462 -0.00011332242 -7.4924654e-05 -6.662262e-05
000190 88 11 11 ba c5 df 7f 38 93 09 8d 39 c1 93 84 b7
       -0.00055339234 6.100514e-05 0.0002690075 -1.580443e-05
0001a0 bb 15 19 38 8f b5 ed b8 ae 30 e7 38 7c 1f db b8
       3.649828e-05 -0.000113348586 0.00011024006 -0.00010448598
0001b0 57 e5 03 39 36 d4 f8 b8 f9 b2 a5 38 2a 11 3d b7
       0.0001257857 -0.00011865089 7.9011494e-05 -1.1269274e-05
0001c0 7c 07 c5 38 89 3d 1e b9 07 84 ec b9 76 d3 4c b9
       9.395086e-05 -0.00015090978 -0.00045111796 -0.00019533731
0001d0 28 88 1e b9 d0 ba d8 b9 b1 33 98 39 7a fc de 36
       -0.00015118776 -0.00041337917 0.00029030212 6.6455077e-06
0001e0 15 76 37 ba 5b 8c 94 b8 ba 9a 2e 38 dc 30 8d ba
       -0.00069984916 -7.083333e-05 4.1628933e-05 -0.0010772008
0001f0 b0 55 0d 39 bf 57 22 b9 70 85 00 b9 3b 51 81 b9
       0.00013478729 -0.00015482212 -0.0001225674 -0.0002466532
000200 bf 44 6c b9 28 b7 f8 36 5e fb 87 b8 4c d4 fd b8
       -0.00022532324 7.412298e-06 -6.4841224e-05 -0.000121035235
000210 e3 30 82 b8 22 32 c2 b8 5c a0 98 b8 f3 e0 f2 b8
       -6.207989e-05 -9.259979e-05 -7.277794e-05 -0.00011581359
000220 e2 53 4e b9 ce 09 0f 38 89 ad 82 39 ef 2a 27 b8
       -0.0001967694 3.4102988e-05 0.00024924826 -3.9855888e-05
000230 c5 50 27 37 b3 2d 65 b7 2f a1 4a 39 5b 9a 31 39
       9.972781e-06 -1.3660104e-05 0.00019324267 0.00016937537
000240 53 3f d9 b8 c5 75 05 b9 5a 84 69 b6 3e 25 65 b8
       -0.000103591614 -0.00012727741 -3.4796744e-06 -5.463254e-05
000250 13 05 71 b9 d0 14 a8 38 8f 77 58 38 aa c3 b6 39
       -0.00022985441 8.014741e-05 5.160976e-05 0.00034859526
000260 db b3 4c 39 04 5d 51 39 c3 ca 85 39 7e 2f 74 b8
       0.00019521957 0.00019966444 0.00025518806 -5.8218364e-05
000270 62 03 58 39 b9 ba c9 39 e4 18 d9 39 80 44 18 3a
       0.00020600625 0.00038476827 0.0004140801 0.0005808547
000280 0a 30 e3 38 10 42 8d 39 ba 76 02 38 01 7b 8f b8
       0.000108331515 0.00026942836 3.1104988e-05 -6.8416826e-05
000290 a2 f0 4b b8 0e 0b 04 b8 db 98 03 34 7c c5 8d b8
       -4.862308e-05 -3.1481548e-05 1.2255934e-07 -6.760188e-05
0002a0 a6 1b 24 b9 06 01 fb 38 b3 ed 0c b7 8d fb 05 b9
       -0.00015650559 0.00011968803 -8.399994e-06 -0.00012777578
0002b0 f4 a3 cc 38 9a fa 2e 39 f7 3a ae 38 72 29 cd 38
       9.758017e-05 0.0001668729 8.3079496e-05 9.7828815e-05
0002c0 82 b3 b0 39 7f 06 aa 39 82 0e 37 37 28 82 0e b9
       0.0003370308 0.00032429767 1.0911028e-05 -0.00013590662
0002d0 55 15 9c 38 09 1b 0b 39 07 fa 1d b9 af 57 2c 38
       7.442633e-05 0.00013266144 -0.00015065829 4.1089657e-05
0002e0 fc 15 67 39 cb d6 49 39 93 04 cf b7 e7 81 61 38
       0.00022038067 0.0001924887 -2.4678453e-05 5.376516e-05
0002f0 4b 26 5b b8 a4 df 79 b8 07 5f 24 39 c1 bf 03 b9
       -5.2249332e-05 -5.9574508e-05 0.00015675659 -0.00012564567
000300 9e fe 1b 37 9d dc 22 39 a2 b6 2d 39 8b a4 3c 39
       9.298003e-06 0.00015531709 0.00016566602 0.00017990374
000310 c5 99 c7 b7 c3 e1 2b 39 c3 ef f1 38 96 be d4 b7
       -2.3794253e-05 0.00016391934 0.000115364346 -2.5361118e-05
000320 0f 13 ed 37 a6 79 ce 37 a5 64 01 39 94 5e 17 39
       2.8261476e-05 2.461376e-05 0.00012339892 0.00014435715
000330 f1 18 86 38 b8 88 41 b9 e2 ff 96 b8 3e 3d 17 b7
       6.3942636e-05 -0.00018456846 -7.200219e-05 -9.01456e-06
000340 65 6d 06 b8 70 03 b9 b8 85 f7 b0 b8 69 6a 2c b9
       -3.204997e-05 -8.822128e-05 -8.438438e-05 -0.00016442839
000350 78 2d 8f b5 5d 52 2a b8 03 8c 98 37 66 ad 50 38
       -1.0667563e-06 -4.0607865e-05 1.818501e-05 4.9752554e-05
000360 a3 2c d7 b9 ac fc 10 b9 84 a4 56 b9 8a eb 8c b9
       -0.00041041253 -0.00013827038 -0.00020469917 -0.0002687837
000370 71 1f fa b8 0a 78 ae 37 30 d0 2f b9 8b 75 20 b8
       -0.000119267854 2.0798314e-05 -0.00016766856 -3.8256443e-05
000380 76 8c 09 b8 52 f0 88 39 a7 cd f4 b6 9b 98 8a 39
       -3.279416e-05 0.00026118994 -7.2957077e-06 0.0002643511
000390 ed 87 7c 39 a4 6c ba 39 5a 0e b8 39 1b f9 6e b8
       0.00024083229 0.00035557628 0.00035105908 -5.697562e-05
0003a0 78 d4 77 b8 33 3b 4b 39 b6 2b 3c 39 ed 54 88 b9
       -5.9087266e-05 0.00019381642 0.00017945361 -0.00026003216
0003b0 49 be 74 39 12 ff f8 b8 a6 48 04 b9 ef 49 4d 38
       0.0002334054 -0.00011873072 -0.00012615565 4.8944665e-05
0003c0 99 b4 df b8 26 a0 ec 38 cd b6 1f b9 99 24 4a b9
       -0.000106671076 0.00011283187 -0.0001523152 -0.00019277855
0003d0 2a 8a ca 37 b9 55 41 b9 66 d2 b7 b8 16 c4 ac b9
       2.4144614e-05 -0.00018437848 -8.76531e-05 -0.00032952492
0003e0 3e 5b ec b8 3f 6f 70 38 c9 22 d0 37 21 08 81 39
       -0.00011270352 5.7324065e-05 2.481173e-05 0.00024610854
0003f0 12 58 5a 39 cd 93 31 39 c5 62 1e 3a c7 8d 4d 39
       0.00020822909 0.00016935095 0.00060419395 0.0001960314
